model.ckpt (torch_old, 858468 bytes, 10 tensors)

lstm.weight_ih_l0 f4 [512, 28]
00000000: 34f5 e13e 3a54 acbd 18e6 3bbe 66de 0bbe
00000010: 6c65 fbbd 14ea 2bbf 95f4 61bf e2a1 92bf
00000020: caa2 7bbf 621f 3dbf d4ae 42bf f689 acbd
00000030: 0942 323d 4ebe 85be 23b9 39bf b826 26bf
00000040: 1f68 f63c a897 8f3e f682 d73e bbdd 8e3e
00000050: 4889 033e 3543 2f3d 00cd b4bd d8e0 5bbe
00000060: 7590 5b3e fb6c 593e 6e12 d5bd e7d7 5abe
00000070: 4c4d 9fbe 4d07 3c3e d48b 8fbe 1cfe 25be
00000080: 9283 82be 9e1a 14be bcc6 253e 0077 99bc
00000090: bf3f eebd 9779 98bd 7591 bbbe 5f4c f2be
000000a0: 611d 1cbf 2ace 95be 6929 9dbe def7 7c3c
000000b0: f224 35be 55e2 bbbe aedc bfbe 4414 e2be
000000c0: 08a0 82be 61ce 96be f4a3 82be ab8e 44be
000000d0: 7a42 0bbd 12a5 6bbe d9f3 e4bd 43a3 b4bd
000000e0: 434c 75be 4040 ef3e 0d11 453e af6d a33d
000000f0: 67f0 4bbd e83f bbbd a606 89bd 6337 5cba
00000100: ea1f 28bc f65e 2f3e 64fc 2e3d 209f b9bd
00000110: f218 49bd 1371 80be 9a60 6abe 1f6f b4bd
00000120: b094 cbbd 5ea3 113d 684b d33d ca9e b63c
00000130: 39ee 41bd fcfc bbbe caad d3be 0a0d 22bf
00000140: 0a9c ddbe 74bf ddbe 2885 953d 34ea 813e
00000150: e03b a13c ed50 6f3e f61c 0cbd af78 1abe
00000160: a52f ba3d d113 aa3d f25c 99bd f8dd 613c
00000170: 61e4 84bd c7c7 2abe 566e 00be f45e 933d
00000180: 227d ea3d 660f 44bc f965 67be d82d b3be
00000190: c82d a4be bfd5 2dbe c09a 7b3d 668d 303e
000001a0: 04b2 793c 972a 0abe 0bff 8ebe 1782 b5be
000001b0: 568c 943c 43ba f03c 33a8 bc3d 7c4a bdbc
000001c0: d38b 57be 27fb 11be f820 2b3e 2c38 c33e
000001d0: ee1a 8d3e ec9d 19be 1411 423c 36e3 1bbe
000001e0: a011 a0bd 1968 d63c d352 abbe e93e 1fbf
000001f0: 92e7 08bf 5ef8 dbbe 8051 40be cd3f e83d
00000200: 8598 4e3e e9b8 1c3e ddfa 18be 0e32 acbe
00000210: c176 04be 5689 15bd 35c2 16be c97d 33be
00000220: 2664 693d dcab c13d c7aa a8be 541b 15bf
00000230: 2644 87be 9270 993e f8fb c43e 7352 0b3f
00000240: 4aac a43e ad1f dd3e 7604 6e3e 91c0 eb3d
00000250: aa09 b3bd 1688 8abe 934c 1dbe 848e d3bd
00000260: 8acc 7cbe 76e8 39be 6616 31be d472 0d3e
00000270: 0fed 843e 10a5 b63d a586 843e eae2 223e
00000280: 63d5 973e d432 b93e 126b 163f 9505 1e3f
00000290: 148d 3e3f c483 6d3f 113d a93e da22 af3e
000002a0: 478f 0fbd 5fe8 b53d 360a b43e 8758 283f
000002b0: 67b7 863f 6ec2 703f a9c3 8b3f 10a6 793f
000002c0: 736a 5d3f 645f 923e 9390 31be d016 05be
000002d0: 2a6e 08be 59a2 1cbe 7548 09bf ff51 2ebf
000002e0: 0cb5 04bf 090d ebbe 06ea 1dbe ae49 4fbd
000002f0: a30c 843e fafd 993e e641 003f 2933 413f
00000300: 2c2d bb3e 5492 ccbe 3858 c4be 01a7 9abe
00000310: 6951 26bd b33a db3d 0a06 493d 8d8c a1be
00000320: 7758 a1be f172 77be 9e50 13bf 5d74 b5be
00000330: 7362 c2bd d94f d2bd 7e3f 84bd 9dc6 51be
00000340: ba04 3ebf 859f a2bf c0b0 34bf ea00 c93e
00000350: 92ce 453e 1347 8abe 86fb e6be 6dd7 dcbe
00000360: 1dc0 e1be eccb 963d 3426 d0bd 39ab 4c3e
00000370: eeb5 f33d caec 0ebf b60b bbbe 72c6 72be
00000380: d5f7 893e 89d9 023e e211 80be 9661 e2be
00000390: b789 cfbe da00 4bbe 15d5 9bbe d55d bebe
000003a0: 3461 c0be 0af5 d9be c3d0 02be e980 42bd
000003b0: d1f6 e1bd d5cf e8bd cf89 0bbe a4fd 77be
000003c0: 6157 febe e3c1 f0be 17bf cabe cd33 2ebe
000003d0: f3a6 683d 9506 e2bd 6cfc 79be a225 b7bb
000003e0: 025e 1e3a 417b bb3d 6849 c8bd 9186 823d
000003f0: 8fa7 c0bc d51a 6dbd 1a5e 843e dc9f b43e
0.44132388 -0.084145024 -0.18349493 -0.13659057 -0.12275204 -0.6715405 -0.8826383 -1.1455653
-0.9829527 -0.7387601 -0.76048017 -0.084247515 0.043520007 -0.26121753 -0.7254812 -0.6490283
0.030078946 0.28045392 0.42092103 0.27903542 0.12845337 0.042788703 -0.08828163 -0.2147249
0.21441825 0.21232979 -0.10403906 -0.21371423 -0.3111366 0.1836216 -0.28036368 -0.16210216
-0.25491005 -0.14463279 0.16189092 -0.018733501 -0.11633252 -0.074450664 -0.36634412 -0.47323892
-0.6098233 -0.29258853 -0.30695656 0.0154399555 -0.17689875 -0.36696115 -0.37473053 -0.44156086
-0.2551272 -0.2945433 -0.2551571 -0.19195049 -0.033998944 -0.23012188 -0.11179323 -0.08820202
-0.23954873 0.46728706 0.19244786 0.07979905 -0.049789812 -0.091430485 -0.06690721 -0.0008400587
-0.010261515 0.17126068 0.042721167 -0.09063554 -0.049096055 -0.2508627 -0.22888413 -0.08810257
-0.09940469 0.03555619 0.10317117 0.022292513 -0.047346327 -0.3671645 -0.41343528 -0.63301146
-0.4328311 -0.4331013 0.07300788 0.25373995 0.019681871 0.23370714 -0.034207307 -0.150851
0.09091119 0.08304561 -0.07488431 0.013785832 -0.06488872 -0.16677772 -0.1254209 0.07195845
0.114496484 -0.011966562 -0.22597493 -0.34995914 -0.32066178 -0.16976069 0.061426878 0.17241439
0.015240196 -0.13492809 -0.27928957 -0.35450813 0.018133324 0.029385692 0.09211769 -0.023106806
-0.21049432 -0.14255963 0.16711795 0.38128793 0.27559608 -0.15001649 0.011844892 -0.15223393
-0.07815862 0.026172685 -0.33461627 -0.6220537 -0.5347835 -0.42962927 -0.1878109 0.11340294
0.20175369 0.15304913 -0.14939447 -0.3363194 -0.12935926 -0.036507927 -0.14722522 -0.17528452
0.056980275 0.09456608 -0.32942793 -0.58244824 -0.2641918 0.29968697 0.38473487 0.5442268
0.32162696 0.4318823 0.23243889 0.115113385 -0.08742078 -0.2705695 -0.15361242 -0.10329917
-0.246874 -0.18155083 -0.172937 0.13813335 0.2596211 0.08918202 0.25883976 0.15906873
0.2965499 0.3617159 0.58757126 0.6172727 0.7443402 0.92779183 0.33054402 0.34206277
-0.03504875 0.08882212 0.3516404 0.6576008 1.052472 0.94046676 1.0919086 0.97519016
0.86490554 0.28588402 -0.17340307 -0.12996984 -0.13323274 -0.15296306 -0.53626186 -0.68093866
-0.51838756 -0.45908383 -0.15421304 -0.050607376 0.2579089 0.3007658 0.50100553 0.7546869
0.365579 -0.3995539 -0.38348556 -0.3020554 -0.040604983 0.10704555 0.049078025 -0.31552544
-0.31512806 -0.2416494 -0.5754489 -0.3544034 -0.09491434 -0.10269136 -0.06457423 -0.20485921
-0.7422596 -1.2704931 -0.705822 0.3925851 0.19317082 -0.2700735 -0.45113772 -0.43133107
-0.44091883 0.07363114 -0.10163537 0.19987191 0.11899935 -0.5583006 -0.36532372 -0.23708513
0.26946893 0.12778296 -0.25013644 -0.44215077 -0.40534756 -0.19824544 -0.30436006 -0.37180963
-0.3757416 -0.42569762 -0.12774949 -0.04748622 -0.110334046 -0.11367766 -0.13626789 -0.2421785
-0.4967604 -0.47022924 -0.39598915 -0.17011948 0.05679984 -0.11036412 -0.24412698 -0.005589203
0.000604123 0.09154368 -0.09779626 0.06373323 -0.023517398 -0.057886917 0.25853044 0.35278213

lstm.weight_hh_l0 f4 [512, 128]
00000000: 3596 7bbe 4ec2 1fbd c29b 87be 2072 253e
00000010: 23a7 b73c a110 a3bd 6f61 71be f8b6 e2be
00000020: c9db 6bbe 42f2 d73d 246b 933e d217 f43e
00000030: 704c 253d 925d b6bd 05a4 e93d 8362 d63e
00000040: 0120 ad3e fd3d 96bc 3008 2b3d 76da 6f3d
00000050: 6fd4 06bd a1a7 69be aa41 be3e 0670 2c3f
00000060: a62c ce3d 3494 7ebd 8c5c d93d 0289 d93d
00000070: bd94 653e ac48 9fbe 7aed 6dbe e36b a33c
00000080: 4848 82be fadf 84bd 001d da3b 361f 99bd
00000090: c43c 143e bad3 613e 3f6f dc3d 5aae bcbe
000000a0: ba3c 2c3e 1c87 cdbe 9ad5 99bc f74e 3abe
000000b0: 1f0f 6bbe 7f9a 5e3e a43e d93d 91ad 2dbe
000000c0: fd9e 213e b494 193e b36c 38be b3ee b9be
000000d0: 9257 c53c 0702 2f3e 939a c73d 9f61 933d
000000e0: 2648 863c 45f9 113e 8797 29be 388b e23d
000000f0: 8a4a 16bc 1b97 32be ea4d 59be 9622 aebd
00000100: 8ccc 58be 3bb4 7b3e 08fa 3bbe 1bd8 49bf
00000110: 5e8c 66be 7e72 b3be ea36 893e 0aa0 d2be
00000120: 9db8 2fbf e64b 443e 058e 62be 52bc 1f3e
00000130: 44e3 e23d b1dc f8be 6026 4e3e a5d5 cebd
00000140: 2c3a 7abe 91e3 88bd fdbe 53bd 0efe 7cbe
00000150: f152 e13e 023c 81bd 19c4 bd3e 56c6 183e
00000160: 7338 003e 49f0 6d3e 98af 1c3e f891 c63e
00000170: c378 7f3d df7d bcbe 7f4d b73c 58b8 3ebe
00000180: 105e 12be f17a babd d8bd a43d 218c 993e
00000190: c577 a53e 452f 82be 1c26 1dbf dd01 3bbe
000001a0: 38f3 09be d219 bfbd ff65 14bf 1a46 423d
000001b0: 1d71 103d 27b2 54be b524 e6bc 8ab1 c23b
000001c0: fdf1 0ebf f16b 04be 1938 03be be02 f33e
000001d0: 5229 3dbd e993 c8be f249 db3d 2462 fb3d
000001e0: 8390 68bf 376e f03e 4fa8 9cbe 24aa 3e3e
000001f0: 2ca5 86bd 67bc 393e f9b6 503e e508 bdbd
00000200: 68f8 bcbe 5b10 a93e 4809 e33d ec75 a1be
00000210: 5d5b 4d3e 3de7 013f de9c 18be c82b 8abc
00000220: 2ccf 0c3d 658d 20be 7b3f a33c 89bc 7abe
00000230: 71ac a6bd ab4e cbbd 4928 0c3e 3ef6 8fbd
00000240: bfc2 30be 7b86 0abe 9f82 653d 57c4 82be
00000250: 705b dcbc 34af 8e3e 3d03 c0be 8bad 083e
00000260: 98ac f0bd 8f6f d13e 1067 823e 7035 a3bc
00000270: b722 fabe 9e39 5fbe 333a 56be ec4a 353e
00000280: 89d8 4c3d 6fcd 983d 15bc 68be 1ff1 d93c
00000290: 1e58 973e a431 c03d cb33 e13d f16e 8fbd
000002a0: ebf6 b2bd b3da 483d 6608 693e 9b6b 3b3e
000002b0: 44eb b4be e838 45be e424 7ebd 2375 2dbc
000002c0: 1e97 f9bd dd4d 08be 1ded b63e 747a 603c
000002d0: 171c 713d 264d 8cbb a3b1 063f 2949 d63d
000002e0: dad8 28be 9d42 5c3d 0c98 763e dfa2 e5bd
000002f0: 9c6a d03d ee9f bc3e 9840 d33e 20e9 ce3e
00000300: 5568 3cbe d29c 633d fc2f 933e bddb b6bd
00000310: 7f04 c6bd 3256 76bd 0281 99be 669a 013e
00000320: d4b9 0bbe d37a 70be 7abd c23d 6a0d 623d
00000330: 92cf 79be 3895 c23e 8145 103d fb23 5bbe
00000340: ed04 d23e 4184 11bd 8c59 3ebe 2fd9 6b3d
00000350: 7da2 ac3e 53cb b5be c52d 81be cef9 83be
00000360: 5056 43be fd67 28be 3196 593e adc0 67be
00000370: 924a a2be 4391 f0be f71d 68be e7e6 9bbd
00000380: 59d8 99be 32cb afbd 8cc1 583c 0d38 5cbe
00000390: a301 8cbd a52e f3bd 6b35 a33a d256 afbe
000003a0: 91e1 483e 515c 043d 5a57 d93e 853b a03d
000003b0: 65b9 b73c b302 68be 387f 1b3d dcff fcbd
000003c0: 2a01 c43d 512d 9ebe e75a 43be 0d87 0c3e
000003d0: f4bd 4dbe 1b3d 343e 6ae8 553d b0ca 223e
000003e0: 39b6 963e 6980 9abe 9113 e53d 1c2c 14be
000003f0: c7b3 9e3e 6397 14be 09bb b53e 7b85 4d3c
-0.24569018 -0.039003663 -0.2648602 0.16156816 0.022418564 -0.07962156 -0.23572324 -0.4428022
-0.2303306 0.10544254 0.2879268 0.47674423 0.0403561 -0.08904566 0.11408237 0.41872033
0.3381348 -0.018340105 0.041755855 0.05855795 -0.032917436 -0.22817852 0.37159473 0.67358434
0.1006711 -0.062153056 0.10613355 0.10621835 0.2242002 -0.31110132 -0.23235121 0.019948905
-0.2544577 -0.06488033 0.006656289 -0.07476656 0.14476305 0.22053424 0.10763406 -0.3685177
0.1682004 -0.40142143 -0.018778611 -0.18194185 -0.22954987 0.21738623 0.10607651 -0.16960742
0.15783305 0.14998132 -0.18010215 -0.36314926 0.024089608 0.17090617 0.097462796 0.07196354
0.016391825 0.14255245 -0.1656171 0.1106171 -0.009173045 -0.17440455 -0.21221128 -0.085026905
-0.21171778 0.24580471 -0.18357098 -0.78845376 -0.22514483 -0.35048288 0.2679971 -0.41137725
-0.6864107 0.19169578 -0.22124489 0.15599182 0.11078504 -0.48605874 0.20131826 -0.10099343
-0.24436253 -0.0668403 -0.051695812 -0.24706289 0.44008592 -0.06310274 0.37063673 0.14919409
0.12521534 0.23236193 0.15301359 0.3878324 0.062371027 -0.36814782 0.02237582 -0.18625009
-0.14293694 -0.091054805 0.08044022 0.29989722 0.3231794 -0.2542669 -0.61386275 -0.1826243
-0.13471687 -0.09331097 -0.57968134 0.047430135 0.035264123 -0.20771085 -0.028093675 0.0059415745
-0.55837995 -0.12931801 -0.12814368 0.4746303 -0.046181984 -0.39175346 0.10707463 0.12274578
-0.9084551 0.46959087 -0.3059716 0.18619591 -0.06574473 0.18138276 0.20382299 -0.09230212
-0.3690827 0.3302029 0.11085755 -0.3153528 0.20054384 0.50743467 -0.1490359 -0.01686658
0.034377262 -0.15678938 0.01992773 -0.24485983 -0.08138359 -0.09927114 0.13687243 -0.07029389
-0.1726179 -0.13527863 0.056032773 -0.2554042 -0.02689907 0.27868044 -0.3750247 0.13347451
-0.1175167 0.40905425 0.25469255 -0.019922942 -0.4885461 -0.21799323 -0.20920639 0.17704362
0.05001119 0.07461058 -0.22727998 0.026604233 0.29559416 0.09384468 0.10996207 -0.07003582
-0.08738502 0.049036693 0.2275711 0.18302767 -0.35335743 -0.1925999 -0.0620469 -0.01058701
-0.121870264 -0.13310952 0.35727778 0.01370107 0.05886468 -0.0042816577 0.526148 0.10463173
-0.16488972 0.053774465 0.24081439 -0.11212706 0.10176584 0.36840767 0.4126022 0.40412235
-0.18399175 0.055569477 0.28747547 -0.089286305 -0.09668826 -0.060140796 -0.29981238 0.12656555
-0.13645107 -0.23484354 0.09508796 0.055188574 -0.24395588 0.3800447 0.035222534 -0.21400444
0.41019383 -0.035526518 -0.18588847 0.05758017 0.3371772 -0.35506687 -0.25230232 -0.25776523
-0.19075894 -0.16445918 0.212487 -0.22632094 -0.31697518 -0.46985826 -0.2266768 -0.076124005
-0.30047873 -0.08583678 0.013229739 -0.21505757 -0.0683625 -0.11874131 0.0012451833 -0.34245926
0.19617297 0.032314602 0.42449456 0.078238524 0.02242727 -0.2265728 0.037963122 -0.12353489
0.095705345 -0.3089395 -0.19077645 0.13723393 -0.20091993 0.17601435 0.0522236 0.15897632
0.294359 -0.30176094 0.111853726 -0.14469951 0.30996534 -0.14510874 0.3549426 0.012544031

lstm.bias_ih_l0 f4 [512]
00000000: 2889 1dbe 2470 e3be 483e 7ebe f04e e6be
00000010: 8581 9dbe 142e 00bf 4885 b7be a8f6 a1bb
00000020: 93fa d0be d9ed e5be 833c d0be bd9a 6fbe
00000030: 8c10 ebbe ecf1 99bd 8e77 83be a978 3fbe
00000040: 2cb5 fabe 4b01 abbe 2698 a4be a2a6 eabe
00000050: efe0 a4be 056e bebe 7cc7 22be 2f83 7c3d
00000060: fa8a ccbe 94a4 8f3d b9eb b3be 8655 8ebe
00000070: 07c4 c3be 73a2 49be 623e e3be 5c6b 84be
00000080: 7439 a1be 9947 e1bd 10d0 1ebe 1c64 63be
00000090: 2de9 80bd de5c b4be a002 09bf eb58 8abe
000000a0: ecf3 85be 06fd 4cbe 8c0c 0ebf 276a babe
000000b0: f84d b8be b97b 44be 7ec2 00bf 6ecf 60be
000000c0: b123 26be aace cbbe 2f0f d4be 3473 cbbe
000000d0: 3df6 d8be d1d8 dfbe a660 2bbe 6832 61be
000000e0: 0c14 8ebe 6a9c afbe 68ce 35be 349a c7bd
000000f0: fee1 d6be 0b6c 08bf b79d 84be 93b7 88be
00000100: 50e0 72be 58b4 12be 0b46 9fbe 74b6 6abe
00000110: d08d 84be 4c59 71be d6e5 02bf 259f efbe
00000120: 083f 77be fc16 5ebe c57d d1be 6b4a e7be
00000130: a960 edbe 6930 edbe 0e51 83be 6c88 65be
00000140: daae eebe 1e36 85be 0e1b bcbe 0f80 eebe
00000150: b886 d7bd 53fc a8be 0432 d4be 7491 c9be
00000160: 83bb 17bf b5d9 08bf 2a42 0f3d 4ce1 8fbd
00000170: ceac bebd 1f1e 92be 6d32 9fbe 1b89 5ebe
00000180: 3408 a5be 49c3 8cbe 6bca e0be cb51 f4be
00000190: fb0d 1fbe c832 bebe dbdc 9cbe 966b 2cbc
000001a0: da9b cfbe 8cc8 11bf 3294 58be 26bd 1abf
000001b0: f4fc bcbe 9a37 4c3d d9b2 ccbe a1c3 3dbe
000001c0: e1e8 ba3a bc0f acbd 2c7f adbd f372 89bd
000001d0: f298 a0be 977d 20be a886 22bc b47f 30be
000001e0: 92a6 f1bc 55ff 53be 5884 b63c 593a 94be
000001f0: 08f0 a6be 7c6a 413d 809f 3bbe 615c 2cbe
00000200: 0d29 8ebe e6c0 f2be e53e ffbd ee47 903d
00000210: ba8c 2fbe 9dad 14bd 2c98 923e 2cfc 26bd
00000220: 399e babd 0b5e 423e dc0c 75bd 28ac 283d
00000230: 348d 9fbe 0188 f0be 8115 303d 8fb1 85be
00000240: 8924 30be 8149 32be 5297 b0bd 0808 5fbe
00000250: 7989 6bbe 0bce 10be 2dc2 663e 8fd3 043d
00000260: 7865 dabe 81d3 0e3d d420 0dbe bc65 00be
00000270: b19f 62be 16e8 1ebe 945a 46be 81dc c9bd
00000280: 942f 97be 609b 293e d593 dc3b f529 2b3d
00000290: 0aad c83d a308 34be 98d6 2abf 9f9a 5cbd
000002a0: 1453 65be 3f49 9abd 85b1 08be 1479 72be
000002b0: fdb2 03bd 2fa9 96bd 587c a1be 84ff 2fbe
000002c0: f6bf 99bd 0d35 b63c d3b5 713e bc7e 9ebe
000002d0: b4f8 e0bd 38e8 3ebe eb11 26be d1ad bcbd
000002e0: 6710 c53c cbad 8d3d 59bc 2c3d 70fa 0e3e
000002f0: 6b4e 963d 8f3f c03e 01a4 1cbe 8ab5 91be
00000300: 37a2 973d 533c 483d 77a7 15be ebf0 9e3b
00000310: 270a b83c fbe9 47be c1b7 1fbe 7885 58be
00000320: 78cb 62be 4754 55be 4cb4 61be 19da cbbd
00000330: 4fd0 993d 85dd 3abe 038d 4fbe a98f 63be
00000340: 4fca 393e 22e8 a63d 37bb e9bd 650a ba3d
00000350: 68a8 8b3d 923c d4bd 847b b5bc 28e7 17be
00000360: c26d efbe 2e9b 4dbd a0e1 ad3d 48aa 2c3d
00000370: 4479 ecbd d35b 94bd b07d a3be a732 dfbe
00000380: c0c5 82be d0dc 70be 903d 2ebe e29e 46be
00000390: 0125 14be 788a 2fbe bdfb 23be 9e3c 6e3e
000003a0: 0751 52be 7dd5 8ebe c4c9 ac3d 921b c5be
000003b0: d143 33be d356 233e 459a 0cbe 8901 39be
000003c0: f156 2cbe eede 853d 9cd9 a53d f207 aa3d
000003d0: ff45 08be 6663 66be c957 bebe f2f9 e0bc
000003e0: af2d 7a3e b1ba 2cbe a77f fbbd 7e9d f73d
000003f0: 301c ca3d 2eb8 a9bd 448e 5c3d 5309 47bf
-0.15384352 -0.44421494 -0.24828446 -0.449821 -0.30762878 -0.5007031 -0.35843873 -0.004942734
-0.40816173 -0.44908026 -0.40671167 -0.23398872 -0.45911062 -0.07516846 -0.2567715 -0.18698372
-0.48966348 -0.33399424 -0.3214733 -0.45830256 -0.3220286 -0.37193313 -0.1589641 0.061648544
-0.3994978 0.07013813 -0.3514078 -0.27799624 -0.38235494 -0.19690876 -0.44383532 -0.2586316
-0.31489146 -0.10999984 -0.15509057 -0.22206157 -0.06294475 -0.35227102 -0.5351963 -0.27020964
-0.2616266 -0.20018396 -0.55487895 -0.36409113 -0.35996985 -0.19187821 -0.5029677 -0.21954128
-0.16224553 -0.3980611 -0.41417834 -0.3973633 -0.42375365 -0.43720105 -0.16736087 -0.21991885
-0.2774967 -0.34299022 -0.17754519 -0.09746209 -0.41969293 -0.5328986 -0.25901577 -0.26702556
-0.23718381 -0.14326608 -0.31108126 -0.22921163 -0.25889444 -0.2356922 -0.5113195 -0.46801105
-0.24145138 -0.21688455 -0.40916267 -0.45173964 -0.46362808 -0.46325997 -0.25647777 -0.22415322
-0.46617776 -0.2601785 -0.3673939 -0.46582076 -0.105237424 -0.33005008 -0.4144441 -0.39368784
-0.59270495 -0.53457195 0.03497521 -0.07025394 -0.09310304 -0.28538606 -0.3109316 -0.21731989
-0.3223282 -0.2749274 -0.43904433 -0.47718653 -0.15532677 -0.37148118 -0.3063725 -0.010523697
-0.40548593 -0.56946635 -0.21150282 -0.6044487 -0.36911738 0.049857713 -0.399802 -0.18531658
0.0014260077 -0.084014386 -0.08471522 -0.06711378 -0.31366688 -0.15672909 -0.0099198 -0.17236215
-0.029498372 -0.2070287 0.022279903 -0.28950766 -0.32605004 0.047220692 -0.18322563 -0.16832115
-0.27765694 -0.47412795 -0.12463168 0.070449695 -0.17143527 -0.036298383 0.28631723 -0.040767834
-0.0911221 0.18981187 -0.059826717 0.041179806 -0.31162417 -0.46978763 0.042989258 -0.2611203
-0.17201437 -0.17410852 -0.08622612 -0.21780407 -0.2300166 -0.14141099 0.2253501 0.03242832
-0.4265554 0.034869675 -0.13782054 -0.12538809 -0.2213123 -0.15518221 -0.1937049 -0.09856511
-0.29528487 0.16563177 0.00673149 0.04178806 0.097986296 -0.1758142 -0.66733694 -0.053858396
-0.22394973 -0.07533502 -0.13348968 -0.23679 -0.03215312 -0.07356488 -0.3154018 -0.17187315
-0.07507317 0.022242093 0.23604517 -0.30956066 -0.10984936 -0.18643272 -0.16217773 -0.0921284
0.024055673 0.06917914 0.04217181 0.13962722 0.07339176 0.3754849 -0.15296938 -0.28458816
0.07403987 0.048885655 -0.14614664 0.004850497 0.022465779 -0.1952285 -0.1559744 -0.21144664
-0.2214793 -0.2083293 -0.22041434 -0.09953708 0.07510435 -0.18248565 -0.20268635 -0.22222771
0.18143581 0.081497446 -0.114126615 0.09084014 0.0681923 -0.10363115 -0.022153623 -0.14834273
-0.46763426 -0.05019682 0.084903 0.04215458 -0.11546567 -0.072440766 -0.3193183 -0.43593332
-0.25541496 -0.23521733 -0.17015672 -0.19396546 -0.14467241 -0.17142665 -0.16014 0.23265311
-0.20538722 -0.27897254 0.08436921 -0.38497597 -0.17506339 0.1595109 -0.13730724 -0.18066992
-0.1683004 0.06536661 0.08098146 0.08302297 -0.13307951 -0.22498855 -0.3717635 -0.027462933
0.2443149 -0.16868092 -0.12280207 0.12090586 0.098686576 -0.082870826 0.053846613 -0.777486

lstm.bias_hh_l0 f4 [512]
00000000: a1fe 78bd 7790 b4be 6b39 93be 603b f2be
00000010: c19d c1be e3fc d6be be93 bebe dbfd 89bd
00000020: d5cb 7dbe e119 b8be 78ed f0be b5bc fcbd
00000030: 5a30 0fbf 56e5 e7bd 21e9 63be d58e 3bbe
00000040: d1fb c9be 4eaf 8dbe b368 c0be cdfd ffbe
00000050: 5c42 c6be 2636 99be cdf5 8cbd 805b 99bc
00000060: e90e c5be 7391 023d eef6 cfbe fed6 90be
00000070: 566f 03bf 6dc4 74be fbd3 e8be 80f0 89be
00000080: 7856 8cbe 3910 2fbe ec4d f2bd eefd 2bbe
00000090: 3d53 32be 86f6 c1be 8abe ddbe 1999 56be
000000a0: 6277 49be 163f 67be a05e 09bf f542 babe
000000b0: 4054 9bbe 93d2 69be 7eb5 22bf 11a9 d3bd
000000c0: 7d55 33be 5c1c cabe b7ef fbbe 0863 d5be
000000d0: 67bb f8be e9c7 c4be 6cf0 68be a260 5dbe
000000e0: 1849 98be 596d c6be bac2 8fbe b257 a5bd
000000f0: 4ca1 debe a56d 0ebf be4a 7dbe dc05 85be
00000100: 8612 39be 9056 45be 548b d7be 5258 1fbe
00000110: 315a 91be 3b88 e2bd 3557 11bf 0e72 cbbe
00000120: 0661 91be fc2e bfbe b606 b7be 9f06 d4be
00000130: 1d36 f1be a782 14bf d6cf 80be beb9 9ebe
00000140: 50a5 d3be d8f7 a5be f85e dabe aacb ddbe
00000150: da4d 88be c066 a6be 522f dbbe f745 a9be
00000160: b99f 34bf 5a4b e4be bae8 783d 9f68 63bc
00000170: 3ee4 d3bc e15e cabe c1a8 abbe d92d 5cbe
00000180: 76a2 c3be afbe 66be cdaf d8be 99b8 babe
00000190: 8ef0 ffbd a687 d3be 6a01 a2be e161 9bbd
000001a0: 5e57 7bbe 6e10 f4be def8 8bbe b384 00bf
000001b0: d03a e8be 02a9 e7bd bd40 a7be 73a5 5cbe
000001c0: 17df 8ebd 8df8 2ebd c60d 103b 5a5c 1abe
000001d0: 8081 c8be 04f0 6abe 4bfd 033e 746a 5bbe
000001e0: 7c3d bcbb 9b9d 6bbe 20f9 c93c 6d8d aabe
000001f0: 90f9 cbbe b4b7 913c 1aea c1bd f3f0 45be
00000200: 978b 97be 963a c8be 2652 eabd 9fb2 613c
00000210: 301b debd f25a 8bbb aa8b aa3e 26b9 68bd
00000220: 7722 313d 19a3 423e ed9c 38bd 8e43 ffbb
00000230: c3d1 9abe 0ad6 b6be 38e3 9bbd e7c8 59be
00000240: abcf 17be 5452 72be 13a0 c4bd 30ee 36be
00000250: 62fa 1dbe 5c2e 2fbd ce5b a43d 22d1 a0bb
00000260: 23ce d3be e6a5 d4bc 899f 7abe 9506 24be
00000270: 031c 13be 5c8f 0cbe e7a7 90be 0565 20bc
00000280: 9371 58be 1c10 3b3e dc20 0bbc 6bbb 333d
00000290: 4c74 e93c 026c 84be 8917 06bf adf2 413c
000002a0: 5b9e f5bd fcc2 5a3b 678c 1fbe f2de 47be
000002b0: 9c69 9abd c669 b2bc a6d3 dbbe 0d02 2fbe
000002c0: e631 95bc 8c5c 3e3c b288 873e ac1e b4be
000002d0: d279 00be 4dd8 29be d33f 08bc 12c8 2ebe
000002e0: a5dd 50bc 3cf9 d53d 1912 2f3e df26 c53d
000002f0: f6ca fa3b 4588 f43e cb7c 41be 8f92 81be
00000300: 25ce 1c3e cfe7 a93d ff29 11be be41 e23c
00000310: b929 9c3d 6dde 3ebe 6a61 15be b253 89be
00000320: 4895 61be aae8 f9bd 1018 65be 45d0 35be
00000330: bb37 e23c 772c 6dbe 8bd4 3dbe cb6f 6dbe
00000340: e9ed 033e 3df5 77bd 2d7e 55bc 7141 fd3d
00000350: e253 593c 1ea6 e1bd 35fb c53d 32b8 2fbe
00000360: c0fc fbbe 23c3 ba3c c412 a63d 90dc 4d3e
00000370: 7033 c5bd ff93 89bd 6241 a3be 15a3 d2be
00000380: 6b05 8cbe 8aa3 38be 6c03 3cbe 025c 6fbe
00000390: 4586 7bbe a00c e7bc 6e7b 31be 65b5 713e
000003a0: 583d a0be 61ae 77be bff1 4d3e 8c94 d8be
000003b0: 0383 6cbe 95be 5c3e d6ec 25be 71b2 96bd
000003c0: 85c4 0abe f80b 353e 70ad d03d 9048 873c
000003d0: 5962 0d3d a239 55be 594c a1be b249 b9bd
000003e0: c58b 623e ac70 42be 57dd afbd 2fc4 213e
000003f0: 32ac 353e 1ab4 f1bb ce9c 753d b737 47bf
-0.060789708 -0.35266468 -0.28754744 -0.47310925 -0.3781567 -0.41989812 -0.37222093 -0.06737872
-0.24784787 -0.35957244 -0.47056174 -0.123406805 -0.55933154 -0.11323039 -0.222569 -0.18316205
-0.39449933 -0.2767281 -0.3757988 -0.49998322 -0.38722503 -0.29924124 -0.0688282 -0.018720388
-0.38487938 0.031876992 -0.4061808 -0.28289026 -0.5134176 -0.23903055 -0.45474228 -0.269413
-0.2740972 -0.17096032 -0.11831269 -0.16796085 -0.17414565 -0.37883395 -0.43309432 -0.2095684
-0.19674447 -0.22582659 -0.5366001 -0.3637921 -0.30337715 -0.22834234 -0.63558185 -0.10334981
-0.1751308 -0.3947476 -0.49206325 -0.41677117 -0.48580477 -0.3843377 -0.22747964 -0.21618894
-0.29743266 -0.387553 -0.28078252 -0.08073367 -0.43482435 -0.55636054 -0.24735543 -0.25981033
-0.18073472 -0.19271302 -0.42098486 -0.15561035 -0.28389123 -0.1106114 -0.5677369 -0.39735454
-0.28394336 -0.37340534 -0.35747308 -0.41411301 -0.47111598 -0.5801186 -0.25158566 -0.31001085
-0.4133706 -0.32415652 -0.4265058 -0.43319446 -0.26621896 -0.32500267 -0.4280954 -0.3306119
-0.7055622 -0.4458874 0.06076882 -0.013879924 -0.02586567 -0.39525512 -0.33527187 -0.21501864
-0.38209885 -0.22533678 -0.42321625 -0.36468962 -0.12497054 -0.4131443 -0.31641704 -0.07587028
-0.24545047 -0.47668785 -0.27338308 -0.5020248 -0.4535737 -0.113115326 -0.3266658 -0.21547489
-0.06976145 -0.042717505 0.0021980866 -0.15074292 -0.391613 -0.22943121 0.12889592 -0.21427327
-0.005744634 -0.2300934 0.024654925 -0.33311024 -0.3983884 0.017787792 -0.094684795 -0.19330196
-0.29598686 -0.39107198 -0.1144145 0.013775497 -0.10845029 -0.004252785 0.3330968 -0.056817196
0.04324576 0.1900753 -0.04507153 -0.0077900356 -0.3023816 -0.35710174 -0.07611698 -0.21268044
-0.14825313 -0.23664218 -0.09600844 -0.17864299 -0.15427545 -0.04276882 0.08025323 -0.004907743
-0.41368207 -0.025958013 -0.2447492 -0.16018136 -0.14366154 -0.13726562 -0.282531 -0.00978971
-0.21137075 0.18267864 -0.008491721 0.043879908 0.028497837 -0.25863653 -0.5237966 0.011837644
-0.119930945 0.003338038 -0.15580903 -0.1951864 -0.07539675 -0.021778952 -0.42934912 -0.17090626
-0.01821227 0.011618745 0.26471478 -0.3517965 -0.12546471 -0.16586418 -0.008315998 -0.17068508
-0.012748157 0.10447928 0.17096747 0.09626555 0.0076535894 0.47760215 -0.18895261 -0.25307128
0.15313013 0.08296167 -0.14176176 0.027619239 0.076251455 -0.18639536 -0.14587942 -0.26821667
-0.22029603 -0.1220258 -0.2237246 -0.1775523 0.027614465 -0.23161493 -0.1853811 -0.23187177
0.12883724 -0.06053661 -0.013030571 0.123659976 0.013264628 -0.110180125 0.096670546 -0.17160109
-0.4921627 0.022798127 0.08109048 0.20103669 -0.096289515 -0.06717681 -0.3188582 -0.41140047
-0.27347884 -0.18031135 -0.1836068 -0.23374942 -0.24562939 -0.028204262 -0.17332241 0.23604353
-0.31296802 -0.24187614 0.2011175 -0.42300832 -0.23096852 0.21557076 -0.16203627 -0.07358254
-0.13551529 0.17680347 0.101893306 0.016514093 0.03451762 -0.20822766 -0.3150356 -0.090472594
0.2212363 -0.18988293 -0.08587139 0.15797494 0.17741469 -0.007376206 0.059963994 -0.7781939

lstm.weight_ih_l1 f4 [512, 128]
00000000: 49ad 963e 6f94 9f3e 83ec c53e 75a0 61bd
00000010: 2fcc 5fbe c33d 1a3e 3e29 35bf 05a6 b4be
00000020: 18b8 ccbd 81b0 5d3d 2fa3 d23e 5c46 5e3d
00000030: 3d58 413e b851 143f a936 16be 164c 223f
00000040: b95a 553d 4bca 3e3d 1c42 843d 76c3 15bf
00000050: e842 cbbe 7ea1 a7be 3f47 abbd 7623 b23e
00000060: 6779 86be 6b96 6d3e cf50 013f 0d3e 05be
00000070: be94 87be 6895 ab3e d0ed 04bc 33b2 84be
00000080: c852 f83e aea3 343e 987e e73c b22f d63c
00000090: 5cf1 443c 216b 96be f016 a53d aa3d 84be
000000a0: 2b22 243e 7b3e e3be ea61 97be d716 f93d
000000b0: 442b 0e3c 499f 553e bbc2 28bf c827 e53e
000000c0: e58d 743e 9188 d43d 9e44 5ebd 2db5 07bf
000000d0: 7150 9ebe b842 763d 049e fdbe c086 613e
000000e0: 3f48 3f3e 939d 4b3f 59a0 80be 60a2 013f
000000f0: b01a ce3e 2348 443f 1ea0 ea3e 15c1 4dbe
00000100: 620e 32be 4cdf 0b3e f5c4 623f ad1e fb3c
00000110: a8b2 4cbe cff6 40be 09be d43d b1d1 7abe
00000120: df52 1dbe a4d2 2bbc 6581 813e 96a8 44ba
00000130: e470 3bbe 6f5e 28be a19b 28be 3e92 5dbe
00000140: 100a 3f3c df38 92bc cf34 a1bc db70 63be
00000150: 346e 9a3e 1017 483e 18ba 183e d2cd 61bf
00000160: eb11 1b3e 9cac 33be c9f8 fa3e 96f7 88bd
00000170: 68f5 0ebe 3b8c eb3c 690c 583e ebd3 55be
00000180: cad9 b0bd d25d 94bc fb6f babe b591 333e
00000190: 75f1 443c ae26 3b3d e235 533e 2c49 5c3e
000001a0: 585d 34be 9fd4 bc3e 1526 e63c f360 98be
000001b0: cb56 903e f857 98bc c4d3 ab3e f911 49be
000001c0: d23d 31bf 09ac e7be 6560 31bf 38fa 873d
000001d0: 7a5b 41bf 9a5f 953d 87ff 07bf 24d9 5dbe
000001e0: 905d 7d3e 897f a03e d639 1abf 9263 173e
000001f0: 051a 2abf f796 7bbf 18af e0be 619e 53be
00000200: f41e b2bc c859 39bd 5c8a 35bd b3cd 80bc
00000210: 6bc3 a7be 5e94 263e 61bb 223e fa01 babe
00000220: b4c4 de3d 896e ca3c d60f e03d 33fa 033e
00000230: 989b 533e c922 2a3d 5a3e 813b 199d e33e
00000240: c9d5 8a3e b0c8 7bbe 7192 7a3d 4136 e73c
00000250: 49ec d0bd 19de 33bc 0131 b83d feb9 803d
00000260: 79b0 303d 7f10 9a3d d868 7f3e 2b14 f3bd
00000270: bcd0 c43e ad18 1bbf 50b7 afbe f2ae ca3d
00000280: f3f9 89be 8047 153e b74c d23d bfcb 08be
00000290: e26d 133e 0f07 4f3c 6591 d1bd a5ce 94be
000002a0: 4bb2 c33d d8af 6fbe 8565 1dbe c3b5 adbd
000002b0: bb78 abbe 1ad1 a5be f06c 313d b7ea 4a3e
000002c0: afca 613e 0284 05be 350c c73c 2e64 ddbc
000002d0: 37eb c93e 73ab 673d aefc 193e 8e1c 5bbe
000002e0: bdbc c3bd 728b 123e f770 20be 9c79 e7bc
000002f0: 8881 cc3c 476e 34be 9f5b 92be 0e4e 03bd
00000300: f9f5 abbc 9b99 e9bd 5b5f 7e3e ca14 00bf
00000310: 2456 b1bb d397 773d 3947 66be b5ef 9fbe
00000320: eec8 e73d 0bdf 533e 8179 fbbd 9e36 12be
00000330: 52a7 2cbe 1259 c7bd c07f f63b 48bf 303e
00000340: bdd5 5fbe 66e2 613d 1d29 4fbe c509 d43d
00000350: b72c 523e f4e4 cf3d 7ce6 e43e ddeb a53d
00000360: bfd2 9dbd be05 583e 86ab a33e 943b 3b3e
00000370: 14b4 333e 2d46 08bd 4f22 a63e bfe3 dd3c
00000380: 6db6 0bbe d410 d53e 0670 19be 13de a33e
00000390: 97cc 21bc 3d35 71bd 4247 10bc d83c 443c
000003a0: c926 58be f5b1 babe 752c 343e 27ad 10bd
000003b0: 3aa7 3ebe 74f5 e73d 394d 5dbc a01c 8b3e
000003c0: 8d91 21be 9ebb 2abd 4fe5 cd3e e903 eabc
000003d0: 407d d33e d880 8d3e 9c3e 6abe 99ea 90bd
000003e0: 1a27 9dbe 618a e53d ec92 8bbe 08b2 51bb
000003f0: 2c2b 193d 79a3 db3e 7a89 9a3e 29c9 d13d
0.2942908 0.31167933 0.38657007 -0.055084664 -0.21855234 0.15062623 -0.70766056 -0.35282913
-0.099960506 0.054123405 0.41140124 0.05426632 0.18881316 0.5793719 -0.14669289 0.6339735
0.052088473 0.04657964 0.06457922 -0.58501375 -0.39699483 -0.32740396 -0.083631985 0.3479268
-0.26264498 0.23201911 0.5051393 -0.13011952 -0.2648067 0.33512425 -0.00811334 -0.25917205
0.48500657 0.17640564 0.028258607 0.02614579 0.012020435 -0.29378608 0.080610156 -0.25828296
0.16028659 -0.44383606 -0.2956689 0.121625595 0.0086773075 0.20861544 -0.65922135 0.44756913
0.23882253 0.103776105 -0.054264657 -0.5301083 -0.30920747 0.06012222 -0.4953462 0.2202406
0.18679903 0.79537314 -0.25122336 0.5063839 0.40254736 0.7667257 0.45825285 -0.20093186
-0.17388299 0.136594 0.8858178 0.030654276 -0.19990027 -0.1884415 0.10387809 -0.24494053
-0.15363644 -0.010487232 0.25294033 -0.0007501928 -0.18304783 -0.16442274 -0.16465618 -0.21637818
0.011660114 -0.017849384 -0.019678501 -0.2221102 0.30162203 0.19540048 0.14914739 -0.8820468
0.15143554 -0.17546314 0.49017933 -0.06687848 -0.13960803 0.02875339 0.21098484 -0.20881622
-0.0863529 -0.018111143 -0.3641356 0.17536052 0.0120204585 0.045691185 0.20626023 0.21512288
-0.17613733 0.36880967 0.02809433 -0.29761466 0.28191218 -0.018596634 0.33560002 -0.19635762
-0.69234955 -0.4524844 -0.6928771 0.06639522 -0.7553021 0.07293625 -0.5312428 -0.21664864
0.24742723 0.31347302 -0.602445 0.14784077 -0.6644595 -0.9827723 -0.43883586 -0.20665886
-0.021743275 -0.045251638 -0.044321403 -0.015723085 -0.3276628 0.16267535 0.15891792 -0.36329633
0.10877362 0.02471091 0.109405205 0.12888412 0.20664823 0.04153708 0.0039442005 0.44455793
0.2711623 -0.24588275 0.061174814 0.028224112 -0.10201318 -0.010978245 0.08993722 0.06285475
0.043137047 0.07522678 0.24942338 -0.11869081 0.38440502 -0.6058453 -0.34319544 0.098966494
-0.2694851 0.14578056 0.102685384 -0.13358973 0.14397386 0.01263596 -0.1023281 -0.29063907
0.09555491 -0.23406923 -0.15370758 -0.08481934 -0.33490548 -0.32386094 0.04331678 0.19816099
0.22049974 -0.13038638 0.024297813 -0.027025308 0.39437267 0.05655999 0.15037796 -0.21397611
-0.09557483 0.14311007 -0.15668093 -0.02825623 0.024964109 -0.17620192 -0.28585526 -0.03205686
-0.020991312 -0.11406251 0.24841063 -0.5003172 -0.00541188 0.060447525 -0.22488107 -0.3123757
0.11317621 0.20690553 -0.122790344 -0.14278647 -0.16860703 -0.09733786 0.007522553 0.17260468
-0.21858878 0.05514755 -0.20230527 0.10353426 0.2052487 0.10151091 0.44707096 0.08101628
-0.07706212 0.2109594 0.319668 0.18284446 0.17549163 -0.03327005 0.3244805 0.027086137
-0.13643809 0.416144 -0.1498414 0.32005367 -0.009875438 -0.058888663 -0.008806052 0.011977397
-0.21108545 -0.36463895 0.17595084 -0.03532138 -0.1861848 0.11326113 -0.013507181 0.27170277
-0.1577818 -0.041682832 0.4021401 -0.028566318 0.41306496 0.27637362 -0.22875446 -0.07075996
-0.30693895 0.11208034 -0.2726053 -0.0031996984 0.037394688 0.42898157 0.3018301 0.102434464

lstm.weight_hh_l1 f4 [512, 128]
00000000: 0886 873d 7a8c 5a3f 7a3a 423e bbc3 aa3d
00000010: 505d a8bd fe58 c7bd 962a 78be d3a3 1ebf
00000020: 88ee 94be 1edf 0fbf 3f3c f2be 5466 eebc
00000030: 4c20 c13d 82c7 323e 0b9f 53be 7e23 b5be
00000040: 87ea 9f3e 0942 43bd 5edc 09bf 6fee d63e
00000050: c648 2a3e 315f 2dbe 6a87 b73e dac3 143e
00000060: 09eb f0be b1f8 8fbe f77a eb3c 0b11 d33e
00000070: 95ed 923e 9fe0 36be 8e08 82be aec4 673e
00000080: b8ff 2cbf 0fd7 fb3d aaff 8c3e 4864 b5bd
00000090: cc14 f93d 64cd 72bf 309b db3e 4b64 26bf
000000a0: de67 003f 88ed d93c 8b06 1cbd 13af 39bd
000000b0: 1f0b c33e abb3 943e abe2 d93e 5990 bfbd
000000c0: 11c2 8f3e fd78 f0bd 3ea9 81be 1b3d 143b
000000d0: 51ba 11be e922 0c3d 1f31 a1be 1aad aa3d
000000e0: d903 153e e883 753e 8e5f 2dbe 470e ee3d
000000f0: f7ed 0c3e 07d5 25bd 8f20 90be a5a3 b0bd
00000100: 5df2 f6bd 3e89 063f ebad b23e 3b7c 283e
00000110: f3eb e2be 16cc 99bd 18e6 483e 086b b93d
00000120: 7d0b 4d3d d25e 56be c2c1 9fbd 78a5 fd3c
00000130: 00ec f8bd 030d ebba 7448 ae3e 4e0d 413e
00000140: 99e6 93be 4217 ccbe 1557 82bc 28b6 97be
00000150: 6bc1 4b3b 6fef 4c3d 7bf6 9d3e 63a9 94bf
00000160: 6cb1 f13c 2f96 d33e e901 66bd 2af6 b13d
00000170: a30b 113f 4ca0 36be 0956 19bf 0157 b03d
00000180: 32a6 ed3d ac65 23bf e571 6dbe 8619 67bc
00000190: 2861 b1be 2b3b f1bd 9c50 023f 3fba f13c
000001a0: b715 b8be 2372 b2bd b4f4 f23e 327b 743c
000001b0: 7158 80be 2c48 33bd 32bf 70bd f691 e0be
000001c0: 2dbc 7fbe c2c4 863e cf66 abbe 1f25 a1bd
000001d0: c0fe e13d 6150 a5bd ad1a a6be ff75 623e
000001e0: 502d f3be 5e77 063e aae8 1a3e cc3e 243f
000001f0: 7d1a 58be 8cda 123e cd09 18be 1a9c 313e
00000200: f8bd afbc 85ae e43c bf72 dfbd b0ee 433e
00000210: 3d78 183f 5d88 623d 9b4d 163e b3d6 0d3d
00000220: 5523 2f3d b838 61be fe20 1cbe 005b 4d3e
00000230: b0ee 0fbe c55d 80bd 77e2 0e3d 7a8f 2f3e
00000240: 6196 9dbd 2f97 a83e bfa9 503e e25d 1c3d
00000250: 3b3f 13be 5dd9 02be 3f90 9b3e 6208 efbd
00000260: 2776 00be dbfc fdbd 3142 a6be 560c 6fbe
00000270: 6dd1 d5bd d5e1 a33e 112a db3c 2d2b 00be
00000280: f695 543e ac59 b2bc 2116 1ebd bc78 c2bd
00000290: f465 4cbe 2865 063e 0157 0b3f 5eae e63c
000002a0: 4648 32bd aa83 233e 0bf0 ad3d bf24 c5bd
000002b0: c153 c8bb 401d 823d c32c 66be 4c9c 4cbd
000002c0: 5d85 273e dd35 4a3e 8aab 71be c984 be3c
000002d0: d3b6 e5bb 89a1 eebd ddde f73d 7e3c 0fbd
000002e0: 68a4 dbbe fc3d 9dbd 1092 17bf b570 edbe
000002f0: 3d53 5dbe c14e 803b 687c 9e3d e742 cabd
00000300: 1213 02be f9f4 a73a 9464 55bd fbd5 25bd
00000310: 8a52 e83d 111f 353c edee b13d 427b dd3a
00000320: 62b3 c3bd 5abb fe3e c271 30bc 14c7 b53d
00000330: e2a9 64bd 2d47 c6bc d3fd cb3d 1498 4ebd
00000340: f725 c4be 9d5c a7bd 8939 383e 0084 1abe
00000350: cdad 633e 2ffe 8a3d c762 853d 2ea8 44bd
00000360: 75e2 0b3d 1bf0 e43e 14f7 ef3d 5b1c b7be
00000370: f7a4 3ebe f0ad a0be d149 703e 269b 4abe
00000380: 4e8b c3bd 021c e8bc b71d a4bd 9adb fabe
00000390: 82fc ecbd b4cc 9a3d 21cd e83d 8818 81be
000003a0: b75f 0d3e 39bc 3bbe 3a4f b33d 7732 05be
000003b0: 1993 9ebe e1e1 5b3e 4f22 703e 010b 46be
000003c0: aaf9 abbd 67ce 06be c537 95bc 3872 8cbe
000003d0: 7862 c5bb 5084 0a3e 4d12 88bd b513 a1bb
000003e0: 7755 4c3c ecee c53b 2490 853d 71be f0bd
000003f0: bb4a 093e ab11 24be 84dc 78bd 8589 68bd
0.06617361 0.853706 0.1896762 0.08338114 -0.08220923 -0.09733771 -0.24234995 -0.61968726
-0.29088235 -0.56199825 -0.4731159 -0.029101528 0.09429988 0.17458919 -0.20666139 -0.3537864
0.31233618 -0.047670398 -0.5385188 0.41978785 0.16629323 -0.16930844 0.358455 0.14527836
-0.47054318 -0.28119424 0.028745158 0.4122394 0.28696886 -0.17859124 -0.25397152 0.22633621
-0.67577696 0.122968785 0.27538806 -0.08857018 0.1216217 -0.9484465 0.42891836 -0.64996785
0.5015849 0.026602522 -0.038092177 -0.04533298 0.38094422 0.29043326 0.42555746 -0.09353704
0.28077748 -0.11741827 -0.25324434 0.002261943 -0.1423123 0.03421298 -0.3148279 0.08333798
0.14552249 0.239761 -0.16930982 0.11623817 0.13762651 -0.04048636 -0.2814984 -0.08624963
-0.12057946 0.52553165 0.34898314 0.1645364 -0.4432064 -0.075096294 0.19619024 0.09053618
0.050059784 -0.20934609 -0.07800628 0.03096269 -0.121543884 -0.0017932955 0.34039652 0.18852732
-0.2888687 -0.39861494 -0.015910665 -0.29631162 0.0031090628 0.05003303 0.30852112 -1.1614193
0.029503547 0.41325518 -0.056154165 0.0868953 0.5665838 -0.17834586 -0.59896904 0.08610345
0.11603965 -0.63827014 -0.23187979 -0.014105206 -0.34644437 -0.117788635 0.5090425 0.029507754
-0.35954067 -0.08713176 0.4745232 0.01492195 -0.25067475 -0.04377 -0.058776088 -0.4386136
-0.24974127 0.2632199 -0.33476874 -0.078684084 0.11034918 -0.08071972 -0.32442227 0.22115324
-0.47495508 0.13131472 0.15127817 0.6415832 -0.21103854 0.14341182 -0.14847489 0.17344704
-0.021452889 0.027915249 -0.10910558 0.19134021 0.5955847 0.055305827 0.14678042 0.03462858
0.042758305 -0.21994293 -0.1524696 0.20054245 -0.14055896 -0.06267885 0.034883942 0.17144576
-0.07694698 0.32927844 0.20377253 0.03817547 -0.1437959 -0.1277823 0.3038349 -0.11671521
-0.12545072 -0.12401744 -0.32472375 -0.2334455 -0.104403354 0.32008234 0.026753457 -0.1251647
0.2076033 -0.021771275 -0.038595323 -0.094956845 -0.19960767 0.13124526 0.5442963 0.028159317
-0.043525957 0.15968195 0.0849305 -0.096261494 -0.0061135 0.06353235 -0.22478013 -0.049953744
0.16359468 0.1974711 -0.23600593 0.023256676 -0.0070103197 -0.11651904 0.12103055 -0.0349698
-0.4289887 -0.07677838 -0.5920725 -0.4637505 -0.21613784 0.003915638 0.07738572 -0.09876042
-0.12702587 0.0012814096 -0.052097872 -0.04048727 0.11343868 0.01105477 0.086881496 0.0016897696
-0.09555699 0.49752313 -0.0107693095 0.08875862 -0.055826075 -0.024203861 0.099605225 -0.050438
-0.38310215 -0.081719615 0.17990698 -0.15089417 0.22234268 0.06786763 0.06512981 -0.04801195
0.034151513 0.44714436 0.11717048 -0.3576382 -0.18617617 -0.31382704 0.23465659 -0.19785747
-0.09548055 -0.028333668 -0.0801348 -0.48995668 -0.115715995 0.07558575 0.1136725 -0.25214028
0.13806044 -0.1833352 0.08755346 -0.13007532 -0.30971602 0.21472885 0.23450588 -0.19340135
-0.08397229 -0.13164674 -0.01821507 -0.27430892 -0.0060237013 0.13527036 -0.066441156 -0.0049156793
0.012471548 0.0060404446 0.06521633 -0.11755074 0.13407414 -0.16022365 -0.060757175 -0.056771774

lstm.bias_ih_l1 f4 [512]
00000000: e4d8 c03e 458e 96be 9251 d3be 70ec 9bbe
00000010: 7d2e efbe 7d22 76be b46f b23d cdbd d9be
00000020: ca97 afbe 0f28 58be 353e 05bf 1a5e 0ebf
00000030: 5666 23bf f3b2 42bf 9a44 0abf 4944 92be
00000040: 1a24 e9ba e7ef 02bf c70b 0dbe 1df6 5abe
00000050: 9acd 1fbe 40f1 cbbd 958c 2dbe 426d debd
00000060: dbe8 efbe 2595 1fbf 23de 8dbc ef6d 58be
00000070: 03f1 97be 3179 4e3e 59dd 20be ddee 8cbe
00000080: 1799 7dbd e188 93be dfc3 32be 3805 4cbf
00000090: 7e80 15bf fec1 c4be 0ea2 d1be 79e1 003e
000000a0: c8a2 05bf 123e f5be 2696 86be bda3 c1be
000000b0: 52a6 4cbd cdd5 cfbe b617 07be 62b5 0dbf
000000c0: a8e9 44be ce9d 94bd c071 96be 9f29 d3be
000000d0: 1389 6dbe b9b9 10bf 9f24 593e 63d6 c3be
000000e0: 21fe c5be ee20 313d 9673 26bf a0af 3fbf
000000f0: 975d 87be 6215 10bd f701 04be 3b65 29bf
00000100: 6016 af3e b238 fdbd 085d 48be fc62 96be
00000110: f447 1cbe 17fb 16bf 39c7 a9be 20e2 42bf
00000120: 0a10 bfbe da6e 93be cf3b 9fbe ce28 b8be
00000130: c9d8 9bbe 3d77 a6be 9005 88be c12f 7dbe
00000140: 7dc2 7e3e 66b5 2bbe b6b7 03be b577 84be
00000150: b51e a9be bfbb f9be b59f 10bf 0114 06bf
00000160: 6796 d9be 3d93 1bbe 4db7 0bbf 5dbc babe
00000170: 80fa 503e d2d1 24bf 9dc9 f7be de9c 8cbd
00000180: e615 17be 4c4a 22be 2419 a63b cd06 a6be
00000190: 8b2c 5b3e edf6 8fbe 7093 94be c45f ddbe
000001a0: 711e 69be 703a ffbe 9035 f8be 3d77 1f3e
000001b0: b003 e7be cdcd afbe 6ef4 a5be 73d9 58bd
000001c0: e739 15be 4aa9 f9be ff5a 0dbf 7f90 b3bd
000001d0: 0c45 0fbd d386 c2be 6c96 4fbf a5a3 ebbe
000001e0: c976 a9be 59a8 e8be 2b40 7cbe 208e 93be
000001f0: c9e3 d7be 083f fe3d 6260 8dbd acc3 19bf
00000200: 74e7 5c3f d747 1dbe 3cb7 2abe fa1d 433e
00000210: bd0e 853e 395f 853d 372b 223e b2d6 bbbe
00000220: 7f7c a43c c07b f8bd b1e6 4f3e dcf0 01be
00000230: 1043 60bd 252a 843d 37fd ab3d 8104 8bbd
00000240: 1567 f3bd c677 04bf 106e 5e3e 7bdf 4c3d
00000250: db98 2ebf be1c 8abc a55e 6f3e 64c2 023d
00000260: 3d1b 513e 4548 bfbc 52d5 aebd 2646 ab3e
00000270: 2fb2 4dbe 83f0 c83e 38cb e83d ba36 95be
00000280: eb3b 1e3d fe77 1abe 30b2 a1bd 361e c2bc
00000290: 083f 04bf 570e a5bd ee0c a93e 7295 f13e
000002a0: c7f6 163f ecb0 c1be 868b 8fbc 48d6 adbe
000002b0: 86c6 ac3e 59b7 213e c2c9 5bbd a4f5 6abe
000002c0: 2857 e73e dfe1 a33e 4f98 10bc 4ac7 81bd
000002d0: a923 08be 9c21 65bd 3f04 dd3d 1d24 9abe
000002e0: 36b0 b03e eee7 36bc 085c b13e cda6 ea3e
000002f0: 5052 81bc 3e56 bb3d c2b0 59be 053b b73e
00000300: ed1c ca3e f8f8 8fbe 8dda 253d 123b c4bd
00000310: 84c6 13bd 4e50 b2be 6004 0d3f 706c b9bc
00000320: 122e 0fbf 270d be3e 05a0 243e ee07 35bd
00000330: 213d 9c3b 29da 313c 22de f4bd 5c6c 3b3e
00000340: 7ab5 443e 85a5 a13e 77a4 0fbe d64e 87bc
00000350: 87a7 633e 5a26 0e3f 8907 e83d 74b5 523d
00000360: 2945 cebe 82d7 063e cc24 94bc f6cb 803e
00000370: 5b09 a23e 4daa a9be c89d 89be b468 863e
00000380: 03c8 8a3d fe56 ffbd a548 96bd d611 83bd
00000390: 4023 163e 430f 603c eab4 e0bd 4c62 253e
000003a0: 36a4 5ebe 6c32 c5bb d466 483e fec1 d2bb
000003b0: 9f46 b73e ab73 823e 9677 b63d d8ac e33c
000003c0: 03ff ccbd 2e22 313e 47fe c2bd 1d15 5d3e
000003d0: f2cf 973e f912 d63d e768 593f ca54 87be
000003e0: 57b3 f8bd 8f1d 79be 7484 a4bd a09f fa3d
000003f0: 0bf4 943e 198e 203d b56e b93d e65a 29be
0.37665474 -0.29405418 -0.4127317 -0.30453825 -0.46715155 -0.24036594 0.08712712 -0.4252762
-0.34295493 -0.21109031 -0.52048045 -0.5561234 -0.6382803 -0.76054305 -0.5401093 -0.28567722
-0.0017787248 -0.5114731 -0.13774024 -0.21382947 -0.15605775 -0.09958124 -0.16948159 -0.10860683
-0.46857342 -0.6233695 -0.017317837 -0.21135686 -0.29676065 0.20163418 -0.15709437 -0.27525988
-0.061913576 -0.28815368 -0.17457531 -0.79695463 -0.5839919 -0.38429254 -0.4094395 0.12586011
-0.5220151 -0.47898918 -0.2628643 -0.37820235 -0.049963303 -0.40592805 -0.13192639 -0.55354893
-0.19229758 -0.07256661 -0.2938366 -0.41242692 -0.23196821 -0.5653339 0.21205376 -0.38249502
-0.38670447 0.043244295 -0.6502012 -0.7487736 -0.2643859 -0.035176642 -0.12891375 -0.6617009
0.34196758 -0.123643294 -0.19566739 -0.29372394 -0.15261823 -0.5897688 -0.33159807 -0.7612629
-0.37316924 -0.2879551 -0.31100318 -0.35968632 -0.3043883 -0.32512847 -0.26566744 -0.24725248
0.24878879 -0.16768417 -0.12863049 -0.2587258 -0.3303124 -0.4877605 -0.56493694 -0.52374274
-0.4249756 -0.15192886 -0.5457657 -0.36471835 0.20408058 -0.6438266 -0.48396006 -0.068658575
-0.14754447 -0.15848655 0.005068915 -0.32427064 0.2140371 -0.28118077 -0.29018736 -0.43237126
-0.22765519 -0.49849272 -0.48478365 0.1557283 -0.4512 -0.343367 -0.32413048 -0.05294175
-0.14572869 -0.4876197 -0.55216974 -0.08767795 -0.034977958 -0.37993488 -0.810889 -0.46023288
-0.33098438 -0.4544094 -0.24633853 -0.2881937 -0.42165974 0.12414366 -0.06903149 -0.60064197
0.8629067 -0.15359436 -0.16671461 0.19054404 0.25987807 0.06512303 0.15836798 -0.36687237
0.020078896 -0.121329784 0.20302846 -0.12689537 -0.054751456 0.06453351 0.08397906 -0.067879684
-0.11884896 -0.5174526 0.21721673 0.050017815 -0.6820199 -0.016859408 0.23375948 0.031923667
0.20420547 -0.02334989 -0.08536781 0.33451957 -0.20087503 0.39245996 0.11366886 -0.29143316
0.03863136 -0.15084836 -0.07895315 -0.023696046 -0.5165868 -0.08059376 0.33017677 0.4718433
0.589703 -0.37830293 -0.017522585 -0.33952546 0.3374521 0.15792598 -0.053659208 -0.22945267
0.45183682 0.32008263 -0.008825376 -0.063368395 -0.13294853 -0.055940256 0.107918255 -0.30105677
0.34509438 -0.011163695 0.34640527 0.45830384 -0.01578632 0.09147309 -0.21258834 0.35787216
0.39475194 -0.28119636 0.04049163 -0.09581579 -0.03607799 -0.34826893 0.550848 -0.022634715
-0.5592967 0.3711941 0.16076668 -0.044197015 0.0047680293 0.010855236 -0.11956431 0.18303055
0.19209853 0.31571594 -0.14027582 -0.016517084 0.22231875 0.5552727 0.11329562 0.05144258
-0.4028714 0.13168147 -0.018083952 0.2515561 0.31647763 -0.33137742 -0.2687819 0.26251757
0.067764305 -0.12467764 -0.073380746 -0.06399886 0.14661884 0.013675514 -0.109720066 0.16150779
-0.21742329 -0.0060179736 0.19570476 -0.006431817 0.35796067 0.25478873 0.08909528 0.02779238
-0.10009577 0.17298195 -0.09521156 0.21590085 0.29650837 0.104528375 0.84925693 -0.26431876
-0.12143581 -0.24327682 -0.08033076 0.12237477 0.2909244 0.039198015 0.09054319 -0.16538581

lstm.bias_hh_l1 f4 [512]
00000000: 44b3 bf3e e8f1 91be 8ab4 debe e593 adbe
00000010: b801 05bf 5c28 e3bd 0802 debc 5969 d1be
00000020: e92b 88be 28f3 05be 56ea e9be 0637 00bf
00000030: 6092 02bf bd5c 2dbf abe5 01bf 9b42 89be
00000040: 70bc ea3c d64b dbbe 91db 91bd ff34 2dbe
00000050: d20e 37be ed1f 623d 3a5e 8cbe 9efb c1bd
00000060: a0ba e7be 2e34 1dbf 3ff9 8bbb f33b 97be
00000070: 12c8 99be 96a6 8e3d 8ec9 0dbe 110f b4be
00000080: 2f9c 2ebe e7bb 9dbe 2b88 eebd 0a53 53bf
00000090: 5b1d ffbe ddcf 02bf b43d 00bf d394 ed3d
000000a0: 314a 10bf b7ea fcbe d0e3 bdbe 5313 cebe
000000b0: 5ccf a6bc f1c9 f4be f0d2 00be f773 07bf
000000c0: 850c 10be 2955 cabd 672c adbe 0185 c8be
000000d0: 45eb 61be 38be 17bf 8f4f 973e a918 a7be
000000e0: 64d8 fcbe a2ed cd3d 70f6 21bf c2bd 26bf
000000f0: 0a32 7abe 2a1d f03c 7f5b 32be 712d 40bf
00000100: 7419 943e 4457 b7bd aeb2 bfbd 7ac2 a2be
00000110: 0f75 39be ef5b e8be af48 c7be ea30 3bbf
00000120: cc40 b5be 6693 6fbe c0b3 a0be f0dd c5be
00000130: 785b 4bbe a10c e7be d08d a6be eb32 9abe
00000140: f826 883e 00ce 68be cc39 b4bd f541 86be
00000150: afc3 dfbe fbc1 d3be 97da 11bf 67ac 2bbf
00000160: 4a76 01bf 3b44 84bd a061 01bf 833e c6be
00000170: 3c51 963e f414 0fbf 2f6b e2be 4fab 64bd
00000180: 378c 0dbe ffd2 8fbe fdbd 72bd 55f0 c0be
00000190: a2fa d53d 1cf6 7cbe 3f29 d7be b0fa cdbe
000001a0: 15f6 78be f85c e6be de4f d4be 4b8d 303e
000001b0: c8f4 cfbe 4ed9 48be 4ded 38be f639 01be
000001c0: 01f9 24be ab43 efbe 4ec4 08bf a058 16bd
000001d0: 09ba 8dbd eef4 aebe c24a 50bf 459d c9be
000001e0: b69f 6ebe 114b efbe 0dff 8fbe 04ec 6fbe
000001f0: f139 d8be 9867 db3d 6e9a cabd 9643 f6be
00000200: 180c 523f 3fe9 3bbe c697 39be bd44 8c3e
00000210: 4463 c43e 8b7b 29bd 821d 9b3e ad6e b4be
00000220: acbb 1d3d a26d 00be 49e0 4c3e 9497 04be
00000230: 4fbd 12be 8541 f93d 25dd d73d 7ab8 b7bd
00000240: a8c2 c3bc 8e0f d9be 0417 1c3e 4301 ff3d
00000250: b587 0fbf 4352 d8bd 652c b43e c6d8 e23c
00000260: c717 6d3e a5f2 26bb 9d31 dbbd e1a9 d13e
00000270: d0cf 33be b7e9 043f af01 013e 0791 eabe
00000280: b97c 07be 8dc6 10be a013 e33c c3bb 83bd
00000290: b7d9 13bf 74e8 3fbe 005e dc3e 3219 d93e
000002a0: e3df ea3e 8884 a5be 950d dc3c 2202 ecbe
000002b0: 027a 963e b381 653e bb45 903d ee9f 8dbe
000002c0: e8da f43e e38f dd3e 9b78 83bd 80a3 e4bd
000002d0: 3654 43be f6fc 373d 5fbf 213e 9520 a9be
000002e0: a423 ae3e a613 10be b144 d83e 83e1 e23e
000002f0: 0428 123e 4698 b13d a3a1 bbbd a295 b63e
00000300: af1a dd3e 576f 95be 712c 503d dca8 edbd
00000310: 0741 a8bc ac32 c9be e46d ec3e cd77 5f3d
00000320: 9cca 0dbf a3da a83e a32a 233e b245 0abe
00000330: 4141 003d b657 c8bd 1706 9bbd 367d 8e3e
00000340: b97a 573d e424 8a3e f774 afbd a116 cabc
00000350: 2ad3 913e d6c0 ee3e d0e2 e53d ea06 89bc
00000360: c45f e4be bd1d 193d d366 78bd 0ce2 703e
00000370: 2f17 cb3e db9f 6bbe 1a0e 8bbe b89a a03e
00000380: b7fa a53d ba27 b5bd f66c 79bc cbca 28be
00000390: 9a9e 663e c862 a63d 0e8f 2cbe 2c2b 583d
000003a0: 7c24 cfbd e9cd 24bb 09f1 563e 3a1d e13c
000003b0: 678b f83e 4a30 293e e00d 82bc 311d 433d
000003c0: 0abd 62be 58cd 713e 8de1 dcbd 8c2a aa3d
000003d0: 3376 4a3e b9b0 973d 0c0e 543f 63d1 1bbe
000003e0: a9a7 82be 13bf 3ebe 52ba 1bbe 595f 2e3e
000003f0: f0b0 4c3e 30ab 263c c7dc 953d 70e0 46be
0.37441456 -0.28504872 -0.43497115 -0.33901897 -0.5195575 -0.11091682 -0.027100578 -0.40900686
-0.26596 -0.13081038 -0.45686597 -0.5008396 -0.510046 -0.6771963 -0.5074107 -0.26808628
0.028654307 -0.42831296 -0.07121957 -0.16914748 -0.17876747 0.055206228 -0.2741564 -0.0947182
-0.4525957 -0.61407745 -0.004271656 -0.29537925 -0.30035454 0.069653675 -0.13846418 -0.35167745
-0.17051767 -0.3080742 -0.11647066 -0.8254858 -0.49827084 -0.51098424 -0.5009415 0.116006516
-0.5636321 -0.49397823 -0.3708787 -0.40249118 -0.020362549 -0.4781032 -0.12580466 -0.52911323
-0.14067276 -0.09879524 -0.3382294 -0.39163974 -0.22062404 -0.59274626 0.29552886 -0.32636002
-0.49383843 0.100550905 -0.6326666 -0.651333 -0.24433151 0.029310782 -0.17417715 -0.7506934
0.2892567 -0.089521915 -0.09360252 -0.31789 -0.1811106 -0.4538264 -0.3892264 -0.7312151
-0.35401 -0.23396072 -0.31387138 -0.38645887 -0.19859111 -0.45126823 -0.3253007 -0.30116972
0.2659223 -0.22734833 -0.088000864 -0.26222196 -0.43703982 -0.41358933 -0.56974167 -0.6705994
-0.5057112 -0.064583264 -0.5053959 -0.38719568 0.29358852 -0.55891347 -0.442224 -0.055827435
-0.13823019 -0.28090665 -0.05926322 -0.3768336 0.10448195 -0.24703258 -0.42023656 -0.40230322
-0.24312623 -0.44992805 -0.41467184 0.17241399 -0.4061644 -0.19614145 -0.18059273 -0.12619767
-0.16110612 -0.46731314 -0.5342454 -0.036705613 -0.06920249 -0.34171242 -0.8136407 -0.393778
-0.23303112 -0.4673696 -0.28124276 -0.23429877 -0.42231706 0.10713118 -0.098927364 -0.4809844
0.82049704 -0.18350695 -0.18124303 0.27396193 0.38356984 -0.041377585 0.3029595 -0.3524069
0.038509056 -0.12541822 0.20007433 -0.12948447 -0.14330028 0.121707 0.10540227 -0.08970733
-0.02389653 -0.4239468 0.15243155 0.124514125 -0.5606645 -0.10562565 0.3519012 0.027691256
0.23153602 -0.0025474217 -0.10702822 0.4094992 -0.17559743 0.5191912 0.12598298 -0.45813772
-0.13231172 -0.14138241 0.027719319 -0.06432297 -0.5775408 -0.18741018 0.43040466 0.42402035
0.45873937 -0.32327676 0.026861945 -0.46095377 0.2938996 0.22412758 0.0704455 -0.2766108
0.47823262 0.4327384 -0.06419488 -0.11163998 -0.19075093 0.044918977 0.15795659 -0.3303267
0.34011567 -0.14069995 0.42239907 0.44312677 0.14273077 0.08671622 -0.09161689 0.35661036
0.4318442 -0.29186508 0.050823633 -0.11604473 -0.02053882 -0.39296472 0.4617759 0.05455761
-0.5538728 0.32979307 0.15934233 -0.13503149 0.03131223 -0.097823545 -0.07569521 0.27829903
0.05260727 0.2698127 -0.08567231 -0.024668993 0.28481418 0.46631497 0.11224902 -0.01672693
-0.44604313 0.037381876 -0.060644936 0.2352373 0.39666125 -0.23010199 -0.27159196 0.3136804
0.08104461 -0.08845468 -0.015223732 -0.1648361 0.22521439 0.0812431 -0.16851446 0.052775547
-0.10114381 -0.0025147146 0.20990385 0.027479757 0.48543856 0.16522327 -0.015875757 0.04763526
-0.22142425 0.23613489 -0.10785208 0.083088964 0.19771652 0.07406754 0.82833934 -0.15216593
-0.2551854 -0.18627577 -0.15207794 0.1702856 0.19989371 0.01017265 0.073175006 -0.19421554
